sensor_recommender_model.pt (torch, 60001 bytes, 6 tensors)

net.0.weight f4 [128, 41]
000000 8a 9b a1 3d b8 a5 08 3e 78 dc d5 3d 6b cf 8f bd
       0.07890995 0.13344467 0.10442442 -0.07021984
000010 42 aa d2 3d 83 8c d5 bd 99 f0 38 bd 12 f9 b0 bd
       0.1028638 -0.10427191 -0.045151327 -0.086412564
000020 e6 6f c3 3b ae 90 a8 bd 39 9c f2 bc 1c 3f 18 bd
       0.005964267 -0.082307205 -0.029615508 -0.03716956
000030 d0 06 8b 3d b5 72 51 3d 20 0f 17 3d ce a7 b8 bd
       0.06788409 0.051134784 0.03687966 -0.09016381
000040 0f f7 0f 3e 78 42 63 bd d8 38 b8 3c f3 98 bb 3c
       0.14059089 -0.05548331 0.022488043 0.02290008
000050 c2 b1 aa bd d1 90 19 3e 2f e4 b1 bc 1a b9 c5 3c
       -0.08334686 0.1499665 -0.021715252 0.024136115
000060 58 4e 81 3d 2b fb 89 bd e5 4d 67 3d e1 28 d4 bd
       0.06313771 -0.067373596 0.05647077 -0.103593595
000070 2e e7 86 bd 9d 23 b4 bd df db e6 bd ad f2 f8 3c
       -0.06587063 -0.08795855 -0.11272406 0.030389154
000080 bc 76 ea bd b5 36 05 3e 04 10 12 be 05 ab 16 bd
       -0.11448428 0.1300915 -0.14263922 -0.03678419
000090 f4 51 be 3d ba 6c 6a 3d bd 84 23 bd 65 85 ba bd
       0.09292975 0.057232596 -0.03992151 -0.09107474
0000a0 9b 20 a7 bd 36 b8 b3 3d b3 56 f1 bc 27 c5 12 be
       -0.08160516 0.0877537 -0.029460287 -0.1433302
0000b0 24 91 e8 3d 00 25 03 3d de 43 21 be e4 71 cf 3c
       0.113558084 0.032017708 -0.15748546 0.025322862
0000c0 f1 68 06 be 7e 70 01 3d 47 3a ef bd 4a d4 27 be
       -0.1312597 0.03160142 -0.116810374 -0.16389576
0000d0 04 5a 1e 3d 9f ad 21 bd 69 df 25 bd 82 58 e5 bc
       0.038660064 -0.03947222 -0.040496264 -0.027996305
0000e0 83 6f 1e 3e f9 12 1f be 24 15 66 3d 6f 3d bb bd
       0.15472226 -0.15534581 0.056172505 -0.09142577
0000f0 c3 a9 10 3d a6 9a 88 3c 64 e4 dd 3c e2 1b c1 bc
       0.035318147 0.016675305 0.027086444 -0.023572866
000100 99 76 9a 3d c9 bb d4 3d 13 7e 08 be 7e b9 d3 bc
       0.07542152 0.1038738 -0.13329343 -0.025845286
000110 58 eb 72 bd 37 b4 d4 bd 28 36 93 3d 98 93 c3 bd
       -0.059306473 -0.10385936 0.07188064 -0.09549636
000120 0c 2e 12 be 91 a5 94 3d 49 95 04 be 46 37 eb 3c
       -0.14275378 0.07258142 -0.12947573 0.02871288
000130 ba 7b 9b bd 88 d1 6d bd 54 03 0c 3e 80 7d 02 3e
       -0.07591958 -0.058061153 0.13673145 0.12743187
000140 3e 22 10 3e 7f 60 a1 bc 7a 46 72 3d 9c a4 19 3c
       0.14075562 -0.019699333 0.059149243 0.009377625
000150 72 ea a1 3d d1 3e 0d 3e 0f 87 53 bd 98 59 27 3e
       0.07906045 0.13793494 -0.051642474 0.16342771
000160 08 42 f2 3d 79 67 32 3e d9 e9 12 be 93 dd c2 3d
       0.11829001 0.17422284 -0.14347018 0.09514918
000170 3d 5c 3b 3d 86 77 1b bc 40 80 28 bd 3b 8a 32 3b
       0.045742262 -0.009488946 -0.041137934 0.0027243036
000180 19 c7 1c be 99 76 f5 bd df 05 4f bd 2a bf 1f 3c
       -0.15310325 -0.11985511 -0.05054271 0.009750167
000190 21 77 b7 bd 0c 65 f7 bc aa 29 0e 3d fe 05 69 3d
       -0.08958269 -0.03019955 0.034707703 0.05689048
0001a0 5b d1 a2 3d 73 b3 dd bd 0b 73 0b 3e 00 c2 a7 3d
       0.07950088 -0.10825243 0.13618104 0.081912994
0001b0 c3 ca 39 bd de a0 fd 3d 10 04 fb bd 34 cf c3 3d
       -0.045359384 0.123841986 -0.12256634 0.09561005
0001c0 6a 84 fa bd 9f fa 48 bd f1 c6 94 3d 60 32 ae ba
       -0.12232287 -0.049067136 0.072645076 -0.0013290159
0001d0 3b bb 67 bd 75 bd 3b 3c ab 9c 22 3c b8 48 b3 3d
       -0.05657504 0.011458744 0.009925048 0.087541044
0001e0 ac e5 6a 3d ba 64 08 be b6 73 96 3d 2e 43 c8 3d
       0.05734794 -0.13319674 0.07346289 0.097784385
0001f0 81 37 24 be c7 63 b4 3d e1 57 87 3d b7 33 19 be
       -0.16036798 0.088080935 0.066085584 -0.14961134
000200 a4 f7 26 be c2 94 97 3d d1 31 97 3c 67 d3 3d 3c
       -0.16305405 0.0740142 0.018456372 0.011586047
000210 c6 81 09 be 21 9c 0a be c9 72 f8 bd 60 f9 9c 3d
       -0.13428411 -0.13536121 -0.121312685 0.07664752
000220 98 e3 07 be 54 16 f8 3c d4 3c bf bb 86 6d 2a bd
       -0.13270414 0.030284084 -0.0058361087 -0.041608356
000230 29 c9 e4 bd 2e 17 0b be 34 89 88 bc d2 8f 9e bd
       -0.11171181 -0.13583061 -0.016666986 -0.07742275
000240 83 b7 e1 bc ab 4c eb bd 50 0a 80 3d ba 9c 3c bd
       -0.027553326 -0.11489233 0.06251967 -0.046047904
000250 fe 97 a2 bd af a8 b9 bd b6 64 17 3d f4 b6 d0 bd
       -0.079391465 -0.09065377 0.03696128 -0.101911455
000260 e2 b1 98 bd 98 dc f7 3d f8 a0 92 bd 86 52 c4 3d
       -0.074558035 0.12102622 -0.071596086 0.095860526
000270 fb d2 52 3d 8b 32 10 be 9c 6c 01 3e de 75 2d 3e
       0.051470738 -0.1408178 0.12639087 0.16939494
000280 b9 91 3c bd a5 c1 37 3e d2 52 ca 3b eb 35 2a 3e
       -0.04603741 0.17944963 0.0061744237 0.1662213
000290 59 44 fa 3c 35 3e 7d 3d 05 67 ea bd ef d1 e5 3d
       0.030550169 0.061826903 -0.11445431 0.11221682
0002a0 91 79 35 3b a9 da 0d be 54 fa b3 3d 3c 9a 0a be
       0.0027690867 -0.13852943 0.08787981 -0.13535398
0002b0 8b 86 1a 3e ce 3e 25 3e 42 ae 2e 3d b0 f7 d8 bd
       0.15090387 0.1613724 0.042646654 -0.10594118
0002c0 01 c7 c4 bc ce df 28 3d 0d 11 01 3e 40 7e c1 bd
       -0.024020674 0.04122906 0.1260416 -0.094479084
0002d0 81 c2 76 3d 37 a3 ab 3d 0c 12 1f 3e 41 70 b2 bd
       0.060244087 0.0838074 0.15534228 -0.08712817
0002e0 09 a1 aa 3d ba 99 2b 3d 54 1b 8e 3c 61 16 2d 3e
       0.08331496 0.041894652 0.017347015 0.16903068
0002f0 08 9c 2d b8 cb 42 82 bc 07 73 bc 3d b3 1c 05 be
       -4.139173e-05 -0.01590099 0.09201627 -0.12999229
000300 0d 3c e4 3d 53 bb fd bd de 99 b3 bd 11 2b 7d 3d
       0.11144266 -0.12389245 -0.08769582 0.06180865
000310 a1 e2 bc bd 7a 12 51 3c 64 a1 bc 3d 5b db 37 be
       -0.092229135 0.012760753 0.0921047 -0.17954771
000320 89 9a 96 bc ea 7f 55 bd d8 98 73 3d af c5 45 3d
       -0.018384235 -0.05212394 0.059471935 0.04828423
000330 ca 29 20 3e 5a ad bf 3d f7 bd af 3d 1b c1 46 bd
       0.15640941 0.09359236 0.08581155 -0.048524003
000340 30 53 20 3e 9e db 34 3e 80 5f d4 3c df 23 1e 3e
       0.15656734 0.17661902 0.025924444 0.15443371
000350 24 50 27 3d d4 47 75 bd 40 8e 21 3e f2 c6 e4 3d
       0.040847912 -0.059882954 0.1577692 0.11170758
000360 2a ba c7 bc 40 d8 f4 3b b0 09 16 be 6b 29 fa 3d
       -0.024380762 0.007472068 -0.14652133 0.12214931
000370 9f 80 57 3d 71 23 28 3e d9 17 80 3d 85 cd 86 3d
       0.052612897 0.1641977 0.062545486 0.065821685
000380 ab cf 37 be 14 02 dd 3d e3 c5 2a 3d d4 a0 c3 bd
       -0.17950313 0.10791412 0.041692626 -0.0955216
000390 4c 20 d5 3d 0a dc 9d bd db 1c b5 3a f0 a9 92 3d
       0.10406551 -0.07707985 0.0013817804 0.07161319
0003a0 97 52 cb 3c 7f 9b 38 3e 58 1f 5e 3d f4 40 df 3d
       0.024819655 0.18028067 0.05422911 0.10901061
0003b0 b7 ff 33 3e a3 d6 b4 bd 83 82 11 be 91 15 0f 3e
       0.17578016 -0.08830001 -0.14209943 0.1397307
0003c0 c9 61 37 bd f1 c3 51 bb e9 c4 30 3e 60 ca a5 3d
       -0.04477099 -0.003200766 0.17262615 0.080952406
0003d0 22 87 bf bd e7 ec 2b 3e 83 52 36 be cd 0f 15 be
       -0.093519464 0.1678959 -0.17804913 -0.14556809
0003e0 64 50 f8 3d c4 1a 44 3d 98 7f 7e 3c 2e 5b 00 be
       0.12124708 0.04787709 0.01553335 -0.12534782
0003f0 a4 31 f1 bc be 90 a2 3d 7b 76 15 be 97 46 b9 bd
       -0.029442616 0.07937764 -0.14595978 -0.09046667

net.0.bias f4 [128]
000000 0e 37 2a be 28 00 02 3e f9 8f 41 3d e9 27 07 3e
       -0.16622564 0.12695372 0.047256444 0.13198818
000010 db a0 33 3e b7 ff a7 bd df 65 e1 bd 3c 0b 06 be
       0.1754183 -0.082030706 -0.110057585 -0.13090223
000020 20 64 39 3d 53 4d 8e bd d9 ab 85 3d d4 01 00 3e
       0.045261502 -0.06948342 0.06526918 0.12500697
000030 12 91 e3 3d 35 85 a6 3b 9e 47 03 3d d4 00 7e bd
       0.11111654 0.0050817975 0.03205072 -0.06201251
000040 b0 d2 ce 3d d7 d5 0c 3e 8a e0 fc bd 2c ef 81 3d
       0.10098779 0.13753448 -0.12347515 0.063444465
000050 11 71 f3 bd 91 75 80 3d b9 0a 5e bd ee 70 b5 3d
       -0.118868 0.06272424 -0.054209445 0.0885943
000060 b0 d5 08 3e 79 bd 16 3e 93 f1 eb bd 9a f5 b6 bd
       0.13362765 0.14720716 -0.11520686 -0.089335635
000070 90 8a 27 bd 45 33 e3 3c 44 19 7d 3d 40 e6 d4 3c
       -0.040903628 0.027734408 0.061791673 0.025988698
000080 01 7e b5 3d af ac 78 bd c4 bf dc 3d 04 23 0e 3e
       0.08861924 -0.06071156 0.10778764 0.13880545
000090 f7 ae a8 3d e5 a9 13 bd 8b 22 8d bd 2f e4 d3 ba
       0.08236497 -0.036050696 -0.06891354 -0.0016166026
0000a0 f8 82 c5 3d 7b ec 91 3d 51 de c7 3c e8 24 1d 3e
       0.09644121 0.07125183 0.024398 0.1534611
0000b0 0f 1b e0 3d b9 ee 83 bc 64 46 14 3d 6e 7d f1 3b
       0.10942661 -0.016105043 0.036199942 0.0073696887
0000c0 1a 6e 05 3e cc d1 8c bd ca 36 e4 bd e7 8a 00 3e
       0.13030282 -0.06875953 -0.11143263 0.12552987
0000d0 9c 0f 82 3d a3 62 a4 bd 83 89 97 3d 70 04 cc 3d
       0.063506335 -0.08026626 0.07399275 0.09961784
0000e0 30 30 5e 3d c5 28 25 3d 74 f8 15 3c 38 e6 95 3d
       0.054245174 0.040322084 0.009153474 0.07319301
0000f0 f5 92 cd bd 79 75 19 3e a1 2a ba 3c 6d c0 3d bd
       -0.100377955 0.14986219 0.022725405 -0.04632609
000100 45 2f 2d 3d fc e1 a7 3d 2f a5 e2 3c 18 69 14 bd
       0.042281408 0.081974 0.027666656 -0.036233038
000110 70 d9 8c 3d a8 9c bd bd 47 36 b5 3d f7 1a d9 bb
       0.068774104 -0.092583954 0.08848243 -0.006625529
000120 68 f2 85 3d 33 ab a1 bd af 69 ae bd 27 cf 22 3d
       0.06540376 -0.07893982 -0.08516251 0.039748337
000130 00 4d bb bd 34 fe 90 3d ab 52 de bd b3 7f d3 3d
       -0.09145546 0.070797354 -0.108556114 0.10327091
000140 2f 81 b0 bd ad 6f ea 3d b1 ae 08 3e b4 be 7a 3d
       -0.0861839 0.11447082 0.1334789 0.061217025
000150 d4 7b 44 bd cb a1 62 bd 20 d1 2b 3d e6 ff 42 bd
       -0.047969654 -0.05533008 0.041947484 -0.047607325
000160 37 49 67 3d ee 71 c5 3d 3e 79 37 3d d0 60 af 3d
       0.056466307 0.09640871 0.04479336 0.085633874
000170 c4 f3 92 bd 05 4f 81 bd b2 14 53 bd 96 af 56 3d
       -0.07175401 -0.063139 -0.05153341 0.052413546
000180 0f ae 20 3e ab b4 b9 bd 73 e0 35 3e a6 3f ab 3d
       0.15691398 -0.09067663 0.17761402 0.08361749
000190 5e 1f 83 3d e7 a3 83 3d 16 c1 89 bd 27 78 10 be
       0.06402467 0.06427746 -0.06726281 -0.14108334
0001a0 8c b9 ff bc c3 0d e5 3d 6c 5e 16 3e 33 06 ae bc
       -0.031216405 0.111842655 0.14684457 -0.02124319
0001b0 e1 0b 02 3e 0e 4e 54 bd f2 6b 61 bd e8 79 87 3d
       0.12699844 -0.05183225 -0.055034585 0.06615049
0001c0 33 0a ff bd de 0c 9f bd 0b b7 d0 3d 6a 69 d1 3d
       -0.12453117 -0.07766126 0.10191163 0.10225184
0001d0 02 e5 ee 3d 29 fe f3 bb f5 ee 9e bc 77 24 b0 3d
       0.116647735 -0.0074460697 -0.019401053 0.08600705
0001e0 c0 03 4e 3d fe 04 a0 3d 15 6f a1 3d 9f c6 f8 bd
       0.050296545 0.07813452 0.07882515 -0.12147259
0001f0 6b a9 92 3d 90 d3 82 bd 70 c7 11 bd b1 6c 16 3e
       0.0716122 -0.063880086 -0.03559059 0.146899

net.3.weight f4 [64, 128]
000000 86 ef e6 bc 83 72 e2 3d 99 27 43 bd 17 12 bb 3b
       -0.028190386 0.110569976 -0.047645185 0.0057089436
000010 b6 9c 95 3d cb 01 44 3d ad 0e 7d 3d 7f f9 c3 3d
       0.07305281 0.047853272 0.061781574 0.09569072
000020 d1 df 06 bd 86 9e c0 3d 33 6a cf 3d 0c 17 25 3d
       -0.03292829 0.09405236 0.10127678 0.040305182
000030 51 b7 e3 3d e3 12 60 bd 42 69 61 bd fd 34 c5 3d
       0.11118949 -0.05470551 -0.055032022 0.09629247
000040 32 4e 3c 3d b6 5a e1 3d 6e c3 8a 3d 05 24 b8 3d
       0.04597301 0.1100363 0.067755565 0.08991245
000050 39 02 f7 3c 8b f6 fc bc e3 97 c4 3d 9b ee c2 3d
       0.030152427 -0.03087928 0.095992826 0.09518167
000060 6e 35 39 3c 1a a1 b1 3d 8a ca 9b bc 96 0b df 3d
       0.011304243 0.08673306 -0.019017477 0.10890882
000070 05 76 b9 3a 16 37 7d bd e7 c4 84 bd 62 b5 35 bd
       0.0014149552 -0.061820112 -0.06482869 -0.044362433
000080 de 67 fa 3c 49 30 6b bd fa 3e bc 3d 0a 81 c9 3c
       0.030567106 -0.057419095 0.09191699 0.024597663
000090 ee 06 17 3d 14 e7 00 bd 57 36 fa bb 2e 14 87 3d
       0.036871843 -0.031470373 -0.0076358723 0.06595646
0000a0 b4 bd d1 3d 71 43 07 bd 93 b1 be 3d 9f 75 7c 3d
       0.10241261 -0.0330233 0.09311213 0.06163561
0000b0 ee da c9 3d 72 fd 75 3d 0b 19 a7 3d bd 29 08 3d
       0.09856211 0.060056157 0.081590734 0.03324293
0000c0 64 06 c3 bc b2 17 c6 3d 56 07 4a 3d 2d dc 2a bc
       -0.023806758 0.09672488 0.049323402 -0.010428471
0000d0 61 40 ae 3c 41 42 e4 3d d1 c2 2a 3d 88 e3 6b 3d
       0.021270933 0.111454494 0.041689698 0.057590038
0000e0 68 bb af 3c 71 8c c8 bc b7 25 84 3d ea 4d ac 3d
       0.021451667 -0.02448103 0.06452506 0.084132984
0000f0 c4 f2 b1 3a 0a 96 a2 3d c1 97 25 3c 96 f1 63 3d
       0.0013576378 0.07938774 0.010106982 0.055650316
000100 41 4e 9b bc 03 fd 80 bd 5f 2c c3 bc 3c 6d 11 3b
       -0.018958213 -0.06298258 -0.023824869 0.0022190353
000110 15 53 23 bd e8 99 aa 3d 6c b6 e0 3b aa 59 d4 bc
       -0.039874155 0.083301365 0.006857684 -0.025921661
000120 48 fa 5b 3d 90 4d 98 3d 4a a9 8b 3c f3 32 c2 3d
       0.053705484 0.07436669 0.017048497 0.09482374
000130 66 82 81 3d f9 9f 86 3d 3f 32 a6 3c a6 17 7d 3c
       0.063237 0.06573481 0.020287631 0.015447533
000140 a0 2c 46 bd de e2 a8 3c 04 0b db 3d d2 05 a7 3c
       -0.0483824 0.020615991 0.106954604 0.020388518
000150 e0 7a 73 bc 71 59 31 bd 8f 19 ea 3c 61 99 10 3d
       -0.014860839 -0.04329819 0.02857664 0.035302524
000160 5d 8a d7 3d b5 2f 7c 3d 8b 08 57 bd 24 69 1e ba
       0.105244376 0.061568934 -0.05249838 -0.0006042889
000170 72 f5 ab 3d 4f e6 90 3b 1e 3f f8 3c 29 6f de 3d
       0.08396424 0.004421986 0.030303534 0.10861046
000180 a9 21 d2 3d 3c 82 bb 3c 05 6f a8 3d 29 cc c5 3d
       0.102603264 0.022889249 0.082243 0.09658081
000190 ad c0 ce 3d 72 c2 a9 3c 6f 64 4d bd 20 f6 40 bd
       0.10095344 0.020722602 -0.05014461 -0.047109723
0001a0 e8 b7 8c bc f3 b5 d7 3d b8 20 4b 3d 58 ac 63 3d
       -0.017177537 0.10532751 0.04959175 0.05558428
0001b0 c7 2a 85 3d a5 2a 26 bd 29 69 cf 3d 0b 97 8c 3d
       0.065023 -0.040568013 0.101274796 0.06864747
0001c0 73 2f 99 3c c2 40 fd bb 5e d6 10 3b 47 4e c5 3d
       0.018699383 -0.007728667 0.002210043 0.09634071
0001d0 01 25 17 bd 7f dd 03 3d 83 da c0 3c 33 02 cd bc
       -0.036900524 0.032193657 0.023541695 -0.025025463
0001e0 68 81 c3 ba 1c a5 b0 3d aa 66 f2 3c 29 75 9c 3d
       -0.0014915885 0.08625242 0.02958997 0.07639534
0001f0 85 e3 b9 3d e9 48 cc 3d a7 83 a2 3d ba 86 d7 3c
       0.09076599 0.09974844 0.07935267 0.02630936
000200 e7 ac 94 bd 44 fa 8e bd 17 d3 9e bd 52 49 d0 bd
       -0.07259541 -0.06981328 -0.07755106 -0.10170235
000210 13 15 e4 bc 17 7e e9 bc 9e c7 b6 bd ad d2 33 3d
       -0.02784208 -0.028502507 -0.08924793 0.043902088
000220 c4 28 ce bd 41 79 b7 bd 8a d2 89 bd 1c c0 b0 bd
       -0.10066369 -0.08958674 -0.0672961 -0.08630392
000230 ea b8 0f bc a0 c1 1e bd f5 2c 63 bd 4a 98 84 3c
       -0.008772114 -0.038758874 -0.055462796 0.016185898
000240 72 6c 8b bc e1 b6 54 3d 8b dd 38 3c 57 6a 43 3b
       -0.017019484 0.05193222 0.011283289 0.0029818022
000250 ce 7c 3a 3d 80 6e e7 ba 25 97 9a 3c 7e a6 39 3d
       0.04552918 -0.0017656833 0.0188709 0.045324795
000260 fc 56 bb 3c ed c4 73 3d 36 d4 94 3d e9 8c aa bd
       0.022868626 0.059513975 0.072670385 -0.08327658
000270 b3 82 1e bd 2f ac 76 bd 89 b6 7c 3d b2 f4 17 bc
       -0.038698863 -0.0602228 0.061697517 -0.0092746485
000280 75 46 f1 bc 57 4c 4d 3d 61 0c 80 3c ea 35 7e bc
       -0.029452542 0.05012163 0.015630903 -0.015515784
000290 38 53 82 bd 33 1b de 3c 1c 34 1f 3c de b4 79 3d
       -0.06363529 0.027112579 0.009717014 0.060963504
0002a0 3c cd cb bc a3 72 6e 3d 90 6f b6 bb d7 d5 40 3d
       -0.024878137 0.058214795 -0.0055674985 0.047078934
0002b0 88 a9 57 3d 10 c4 53 3d 1a 78 8b bc 2b 5f b9 bd
       0.052651912 0.05170065 -0.017025042 -0.09051355
0002c0 da 6a bf bd 0f 06 b9 bd 77 0d 24 bc 83 2a c4 bd
       -0.09346552 -0.09034359 -0.010012976 -0.09578421
0002d0 05 dc f8 3c e6 ee c1 3c 3a 08 7f bc 29 81 74 bd
       0.030378351 0.023673486 -0.015565926 -0.05969349
0002e0 75 f8 41 3d 05 b1 d4 bd 25 c4 28 bd 7a 95 d5 bc
       0.047356088 -0.10385326 -0.041202683 -0.026072253
0002f0 35 85 27 3c 6a 43 ce bc 68 31 6c bd 8f f5 e9 bb
       0.01022463 -0.02517863 -0.057664305 -0.0071398686
000300 6b bf 19 3d 36 59 d0 bd 9a a1 55 3d 9e 31 e3 bc
       0.037536066 -0.10173266 0.05215607 -0.02773362
000310 16 16 c3 bd 70 6b d2 bd 9c 1e cc bd 53 89 31 bd
       -0.09525697 -0.10274398 -0.09966776 -0.043343853
000320 8f 4e 9f 3b 33 9d 9a bb ec 7b 52 3d 0f 9a de b9
       0.00486166 -0.0047184466 0.051387712 -0.00042457922
000330 81 fb 5b bd b0 02 8e bd 91 81 51 3d fe e2 03 3c
       -0.05370665 -0.06934106 0.051148955 0.008049725
000340 40 29 27 3d 3d 0f 59 3c 02 7a 5e 3d 18 45 03 3d
       0.040810823 0.013248262 0.054315574 0.032048315
000350 2c 02 7a bd 61 6c 2b bd f8 ce 77 b8 14 b0 a3 bb
       -0.061037228 -0.041851405 -5.9082144e-05 -0.0049953554
000360 c0 c3 71 bd c1 5b 83 3a 43 03 49 3d 6d 1e 4a bd
       -0.059024572 0.0010021852 0.049075376 -0.049345423
000370 e6 25 a3 bc dc 14 1d bd 64 07 24 bc ab 93 15 bd
       -0.019915532 -0.03834997 -0.010011528 -0.03651778
000380 11 f2 f9 3c e2 a6 47 bd 0d e5 89 3d bc ae f1 bc
       0.030510934 -0.048743136 0.06733141 -0.029502265
000390 86 7b a5 3c 28 09 e1 bc 2b 9e 5e bd f6 da 53 3b
       0.020200502 -0.027470186 -0.05435006 0.0032326556
0003a0 32 49 61 bd 07 d3 b7 bd 2c 99 6f 3d 15 e1 8a bd
       -0.055001445 -0.08975797 0.058495685 -0.06781212
0003b0 e6 92 d8 ba 56 41 31 bd 95 d2 88 39 7d c7 00 bd
       -0.0016523271 -0.0432752 0.00026096837 -0.031440247
0003c0 12 a3 63 3d 94 57 a1 3a 09 60 d5 3b df 35 29 bd
       0.055575438 0.0012309426 0.0065116924 -0.04131114
0003d0 59 cf fb bb 7d f4 32 bc b7 44 3c 3d f7 0a 22 bd
       -0.00768463 -0.010922548 0.04596397 -0.03956124
0003e0 ee ff 71 3d c6 92 a7 bc b1 93 98 3c a4 84 51 bd
       0.059081964 -0.02045573 0.018625112 -0.051151887
0003f0 3f 2c bd bd 6d fb c5 bc b1 62 14 bd 1b f0 ff 3b
       -0.09236955 -0.02416774 -0.036226932 0.007810605

net.3.bias f4 [64]
000000 73 14 f1 bc ae 78 3d b9 fe 23 c5 3d f9 03 83 3d
       -0.029428696 -0.00018069401 0.096260056 0.06397242
000010 6a c2 02 3b 37 6c 20 bd b3 64 7c 3d a0 7c 73 3d
       0.0019952306 -0.0391657 0.06161947 0.059445024
000020 63 e0 6d 3d 68 a1 ba bd b4 8c fc 3c 8d eb c9 3c
       0.05807532 -0.09112817 0.030828811 0.024648452
000030 8e 1e a7 3d ad 94 8b 3d fd e5 9f 3d 00 a2 e4 3d
       0.08160125 0.06815467 0.07807539 0.111637115
000040 16 ff 6f 3d da c8 2b 3d b1 99 80 bc 4d 87 97 3d
       0.05859288 0.041939594 -0.015698286 0.073988535
000050 1c 86 97 3d 69 2a 8a 3d ee 3c b2 bc 1f 16 81 3d
       0.07398626 0.0674637 -0.02175757 0.063030474
000060 ba 0e 9e 3d 61 bd 5d bd 5d 10 47 bd 63 04 e0 3d
       0.077176526 -0.054135684 -0.04859959 0.10938337
000070 ad df dd 3d a9 03 bf 3d e5 89 c0 3d 74 60 2f bd
       0.108336784 0.0932687 0.09401301 -0.042816594
000080 71 b0 6c 3d a2 be 33 bd 22 c7 81 3d 49 2f c4 bc
       0.057785455 -0.043882973 0.0633681 -0.023948329
000090 3f c8 85 3d 9c 62 9e bc 15 28 08 3d 2f fd 75 bd
       0.065323345 -0.01933413 0.03324135 -0.060055908
0000a0 0f fd d1 3d d4 2b 7a b8 13 0e 61 3d f7 2f 5d bc
       0.10253345 -5.9645463e-05 0.054945063 -0.013500205
0000b0 04 84 07 bd cb 1c da 3d c2 c3 8d bc c3 85 32 bd
       -0.033084884 0.10650023 -0.017305259 -0.043584596
0000c0 af 0e fc bc f3 be 83 3d e8 e7 d4 bc d3 2a 71 bd
       -0.03076872 0.06432905 -0.025989488 -0.05887873
0000d0 d8 68 e1 3b 29 8f 27 3c 6c ac 1e bc e1 3d df 3d
       0.0068789534 0.010227003 -0.009684663 0.10900474
0000e0 9a f3 c2 bd b5 54 7e 3d 96 f2 4c 3d 87 24 89 3d
       -0.095191196 0.0620925 0.050036035 0.0669642
0000f0 19 af cc bd 31 43 04 3d d7 12 b4 bd e7 d3 03 3d
       -0.09994335 0.03229064 -0.08792656 0.032184508

net.6.weight f4 [8, 64]
000000 4e 75 ac bc 36 4e 8a 3d a2 73 97 3c 44 bc 9d 3d
       -0.021052029 0.06753199 0.018487755 0.077019244
000010 e4 25 10 3c 4a 65 e1 3c 4e 6c b9 3c f9 2f 95 bd
       0.008798096 0.027514119 0.022634652 -0.07284541
000020 93 6b 93 bd c8 ea 0f bd 25 74 c6 bd 85 07 9b bd
       -0.071982525 -0.035136014 -0.096901216 -0.075697936
000030 82 fa 79 bd 29 71 a5 bd 80 1d 91 3d 0a 05 fc bd
       -0.06102992 -0.08078224 0.07085705 -0.123056486
000040 dc 49 d0 bd de 80 40 3c 4d ec 93 3d 68 b6 c6 3d
       -0.101703376 0.011749474 0.07222805 0.0970276
000050 a3 ff 5d 3d 50 7c 27 3d e3 96 ad 3d 71 01 c5 bc
       0.054198872 0.040890038 0.08476045 -0.024048539
000060 d0 cc ad 3d d0 48 0d be 33 8b 9f 3d 09 9a af bd
       0.084863305 -0.13797307 0.07790222 -0.08574302
000070 1b e4 b4 bd 2a f1 fb bd b9 21 81 bd b6 4e 88 bd
       -0.0883257 -0.12301858 -0.0630526 -0.06655638
000080 9d c9 af bd 73 3e d9 bd e4 98 be 3d 78 3a 8e bd
       -0.085833766 -0.10607614 0.09306505 -0.06944746
000090 06 28 0f bc 57 55 8d bd d1 b4 ed bd bf 19 7f 3d
       -0.00873757 -0.06901043 -0.116067536 0.062280413
0000a0 5f f7 03 bd bb 26 79 3c 6f 9e ff bd 8d 7c 3b 3d
       -0.032218333 0.015206988 -0.12481391 0.045773078
0000b0 e7 62 cf 3c 53 39 ce bd dd cc 0c 3c 3e d5 6c bd
       0.025315715 -0.100695275 0.008593765 -0.05782055
0000c0 c7 4a 07 bd 91 05 de 3c d7 0e be 3d 56 20 8d bd
       -0.033030298 0.027102264 0.09280174 -0.06890933
0000d0 a1 f4 b0 bb 0d 56 b9 3c 9c 3c 0a be ea d9 11 be
       -0.005400256 0.02262404 -0.13499683 -0.14243284
0000e0 19 78 28 3d 79 29 b7 bd 9e 60 e6 bd f9 9f b5 bd
       0.04113016 -0.08943457 -0.11248897 -0.08868403
0000f0 3c 49 24 3d b6 a9 07 be 90 28 3f 3d bb 79 c9 bd
       0.040108904 -0.13248333 0.046669543 -0.09837671
000100 f0 5b 3f bc a4 fc cc 3d 67 23 0d be 96 da 08 bd
       -0.011679634 0.10009125 -0.13783036 -0.033411585
000110 cf 4f 00 be 51 da 9f 3d 4a 36 dc bd f4 33 c2 bb
       -0.12530445 0.078053124 -0.10752542 -0.0059266035
000120 97 ee 00 3d d5 1d be 3d aa 9a 3f 3d 61 9e 64 3d
       0.031477537 0.09283034 0.04677836 0.055815104
000130 a3 43 f3 3c 7e c2 b5 3d 3c aa 98 bd 4c 6d 96 ba
       0.029695338 0.08874987 -0.07454345 -0.0011476665
000140 91 12 19 3b af 6c fb bd d1 2b a8 bd 9a 83 2d 3d
       0.0023357014 -0.12276589 -0.08211482 0.042361833
000150 1b 47 bc 3d 23 d7 a3 bd d5 20 11 be f4 64 0c bd
       0.0919325 -0.080000184 -0.1417268 -0.034275964
000160 41 17 c6 bd 6e 1b 11 3d 59 9f 03 be c8 d5 b2 3d
       -0.09672404 0.03542655 -0.12853755 0.08732182
000170 67 bd 40 3c 89 18 8f bc 7d 03 af 3d 5f 57 04 bd
       0.011763907 -0.017467754 0.08545587 -0.032309886
000180 e2 eb 9e 3d fe cf db 3b b0 61 d4 3c 13 c9 b1 3d
       0.07759835 0.006708144 0.025925487 0.0868093
000190 bd a1 cf bd 24 bd 9d 3b 08 3f 3c 39 32 73 b9 3b
       -0.10138271 0.004813807 0.00017952558 0.0056594843
0001a0 34 2a c2 bd c7 82 ac bd 50 92 8e bd c3 10 a9 bd
       -0.09480706 -0.08423381 -0.06961501 -0.0825515
0001b0 18 78 c9 3d 83 4f 3b bd 61 02 8a bd d9 ab 10 be
       0.09837359 -0.045730125 -0.06738735 -0.14128055
0001c0 03 40 92 bd 97 c1 1a be 94 7f 99 bd c4 7d 38 bd
       -0.071411155 -0.15112911 -0.07495037 -0.045041814
0001d0 f5 ee 60 3d 9f 77 d2 3d f0 19 70 bd 0b 9d b1 bd
       0.054915387 0.10276722 -0.058618486 -0.08672532
0001e0 7b 05 a5 bd f5 7a ab 3d f7 24 e3 3c 30 e8 97 3d
       -0.08057686 0.083730616 0.027727587 0.07417333
0001f0 9d 95 86 3d 8c 82 15 be 73 59 98 bd b8 3f 2f 3d
       0.06571505 -0.14600581 -0.07438936 0.042785376
000200 a2 4a 08 be b6 34 9c 3d 6e 24 9a 3b b6 93 5b bc
       -0.1330972 0.07627241 0.00470405 -0.013401916
000210 11 7a fe bd 81 f4 e9 3c 81 54 d7 bd de 8f a2 bd
       -0.12425626 0.028558971 -0.10514165 -0.07937597
000220 70 10 4f bd f0 a8 ca 3d d1 47 b7 3d f0 00 a3 bd
       -0.050552785 0.098955035 0.08949245 -0.07959163
000230 48 47 14 be 76 ed b6 bd d2 06 c7 bd 90 bc f4 bd
       -0.14480317 -0.08932011 -0.09718098 -0.11950028
000240 41 be b6 3c 12 a0 94 bd a9 96 10 be a7 90 4f bd
       0.022307517 -0.072570935 -0.14119972 -0.05067506
000250 f0 a2 46 3c 67 43 70 bb 9c 9d a3 bd 03 e3 d0 bd
       0.012123808 -0.0036661269 -0.07989046 -0.10199549
000260 14 88 b2 3d 8e 78 ee 3c af 4f aa 3b a2 84 da bd
       0.08717361 0.02911022 0.0051974873 -0.10669829
000270 fd 89 00 be f6 fc 00 bd 3a 94 39 bd ba 70 0f be
       -0.12552638 -0.031491242 -0.045307375 -0.14007846
000280 fc e7 e7 bd a1 fe 69 3d ad 62 d0 bc cd 05 a3 3d
       -0.113235444 0.0571276 -0.025437677 0.07960091
000290 5d da 16 bd 8d 8a f8 bd 1d 7c 5d 3d 7f 36 c0 3d
       -0.03682934 -0.121358015 0.05407344 0.09385394
0002a0 5e 2f be bd 3c be e1 bb b5 2d be 3d da b9 ca 3c
       -0.09286378 -0.006889133 0.09286062 0.024746824
0002b0 aa 93 9c 3d 4f b5 f2 bd c6 33 f6 ba fc f5 1e bd
       0.07645352 -0.11850988 -0.001878374 -0.038808808
0002c0 4e 09 9d bd 38 0b b2 bc ac 1a 5a bd 5b 5d e1 bd
       -0.0766779 -0.021733865 -0.053248093 -0.11004134
0002d0 36 8a 8d 3d 3f 35 32 bd cb 12 d7 bc 79 e9 60 bd
       0.06911127 -0.04350781 -0.026254078 -0.054910157
0002e0 de 75 bc 3d 09 40 be 3d 2e 2d 14 3c e4 c4 64 3d
       0.09202169 0.092895575 0.009043975 0.055851832
0002f0 1f 11 de 3d fc b0 bb 3d a2 1b 73 ba 60 1e 84 bd
       0.10843109 0.091646165 -0.0009273832 -0.06451106
000300 ef 07 1f 3c 5c 3d ba 3d 37 69 55 3d 4e 97 9b 3d
       0.009706481 0.090937346 0.052102294 0.075972185
000310 ee da f1 bc 6b 7e 83 bc 58 03 94 3c aa 2d aa bc
       -0.02952334 -0.016051492 0.018068 -0.020773727
000320 63 d8 ba bd d0 7a d0 3d 5c 14 75 3d 3f ea ff bb
       -0.09123304 0.101796746 0.05983387 -0.0078099067
000330 0f 8f 0a be 3a 69 76 3a 8b 3f 08 be 9f 6b d4 3c
       -0.13531135 0.0009399835 -0.1330549 0.025930224
000340 a6 a0 8a 3d 87 b1 89 bd ee fb bb bb 9d c6 a6 bd
       0.067689225 -0.06723314 -0.0057368195 -0.08143351
000350 2f 62 af bd 2e 9c 06 3c 93 24 ab bd 36 37 18 be
       -0.08563649 0.008215947 -0.08356585 -0.14864811
000360 88 52 72 bd 20 23 36 3c ad 77 e2 3d 91 4f 92 bd
       -0.05916074 0.011116773 0.110579826 -0.07144082
000370 fc 55 70 bd 6c c5 01 be c8 e3 10 be eb f0 7d 3d
       -0.05867575 -0.12672967 -0.14149392 0.061997335
000380 3d 07 e0 3c 94 b2 06 be 7a 07 61 bd e5 23 ad bd
       0.027347201 -0.1315406 -0.05493877 -0.08454112
000390 f4 36 15 be d2 03 c0 bd 21 31 ac bd 6b 9f 24 3d
       -0.14571744 -0.09375729 -0.08407808 0.040191095
0003a0 04 8a 52 3b 4c cf cb 3d cc 3d d9 bb 5e 84 d5 bd
       0.003212572 0.09951648 -0.006629681 -0.10425638
0003b0 1e 0c b7 3c b9 16 ab 3c 28 c4 1f bd 53 d5 b7 bd
       0.022344645 0.020884858 -0.03900543 -0.08976235
0003c0 76 5e 93 3d 64 f9 18 bd cb 58 c6 3d dc 44 cb bd
       0.07195751 -0.037347212 0.09684905 -0.09925243
0003d0 d9 48 9d bc 84 96 b9 bb 1d 6b 21 bd 8b d6 fb bd
       -0.019199776 -0.005663695 -0.03940879 -0.1229678
0003e0 83 a0 af 3c 8b 7f 86 3b ec d8 c3 bd 24 8c 2a 3d
       0.021438843 0.00410456 -0.09562859 0.041637555
0003f0 be 15 0c be 81 05 84 bd fb bd 25 3d 11 3b e7 bd
       -0.13680169 -0.06446362 0.040464383 -0.11290563

net.6.bias f4 [8]
000000 6c 29 bc bc 8f 04 02 be 28 55 32 3d 3b 2b b5 3c
       -0.02296897 -0.12697051 0.043538243 0.02211534
000010 b7 4f ba 3c eb 84 f9 bd ac e2 d2 bd 5b 0e 03 be
       0.02274309 -0.12183555 -0.102971405 -0.12798445
